…
Average actions of items: 16.142997221768262
The number of inters: 296337
The sparsity of the dataset: 99.95465569853714%
Remain Fields: ['user_id', 'item_id', 'timestamp']
Thu 12 Sep 2024 00:12:03 INFO  [Training]: train_batch_size = [2048] train_neg_sample_args: [{'distribution': 'none', 'sample_num': 'none', 'alpha': 'none', 'dynamic': False, 'candidate_num': 0}]
Thu 12 Sep 2024 00:12:03 INFO  [Evaluation]: eval_batch_size = [4096] eval_args: [{'split': {'LS': 'valid_and_test'}, 'order': 'TO', 'group_by': 'user', 'mode': {'valid': 'full', 'test': 'full'}}]
Thu 12 Sep 2024 00:12:04 INFO  M3Rec(
  (img_feat): Embedding(18358, 512)
  (text_feat): Embedding(18358, 768)
  (item_embedding): Embedding(18358, 64, padding_idx=0)
  (LayerNorm): LayerNorm((64,), eps=1e-12, elementwise_affine=True)
  (dropout): Dropout(p=0.5, inplace=False)
  (img_trans): Sequential(
    (0): Linear(in_features=512, out_features=64, bias=True)
    (1): LeakyReLU(negative_slope=0.01)
    (2): Linear(in_features=64, out_features=64, bias=True)
  )
  (text_trans): Sequential(
    (0): Linear(in_features=768, out_features=64, bias=True)
    (1): LeakyReLU(negative_slope=0.01)
    (2): Linear(in_features=64, out_features=64, bias=True)
  )
  (img_LayerNorm): LayerNorm((64,), eps=1e-12, elementwise_affine=True)
  (text_LayerNorm): LayerNorm((64,), eps=1e-12, elementwise_affine=True)
  (mamba_block): ModuleList(
    (0-1): 2 x MambaBlock(
      (mamba): Mamba(
        (in_proj): Linear(in_features=64, out_features=256, bias=False)
        (conv1d): Conv1d(128, 128, kernel_size=(4,), stride=(1,), padding=(3,), groups=128)
        (act): SiLU()
        (x_proj): Linear(in_features=128, out_features=68, bias=False)
        (dt_proj): Linear(in_features=4, out_features=128, bias=True)
        (out_proj): Linear(in_features=128, out_features=64, bias=False)
      )
      (dropout): Dropout(p=0.5, inplace=False)
      (LayerNorm): LayerNorm((64,), eps=1e-12, elementwise_affine=True)
    )
  )
  (id_mamba_ffn): ModuleList(
    (0-1): 2 x FeedForward(
      (w_1): Linear(in_features=64, out_features=256, bias=True)
      (w_2): Linear(in_features=256, out_features=64, bias=True)
      (activation): GELU(approximate='none')
      (dropout): Dropout(p=0.5, inplace=False)
      (LayerNorm): LayerNorm((64,), eps=1e-12, elementwise_affine=True)
    )
  )
  (img_mamba_ffn): ModuleList(
    (0-1): 2 x FeedForward(
      (w_1): Linear(in_features=64, out_features=256, bias=True)
      (w_2): Linear(in_features=256, out_features=64, bias=True)
      (activation): GELU(approximate='none')
      (dropout): Dropout(p=0.5, inplace=False)
      (LayerNorm): LayerNorm((64,), eps=1e-12, elementwise_affine=True)
    )
  )
  (text_mamba_ffn): ModuleList(
    (0-1): 2 x FeedForward(
      (w_1): Linear(in_features=64, out_features=256, bias=True)
      (w_2): Linear(in_features=256, out_features=64, bias=True)
      (activation): GELU(approximate='none')
      (dropout): Dropout(p=0.5, inplace=False)
      (LayerNorm): LayerNorm((64,), eps=1e-12, elementwise_affine=True)
    )
  )
  (loss_fct): CrossEntropyLoss()
)
Trainable parameters: 1542786
Thu 12 Sep 2024 00:12:05 INFO  FLOPs: 19822272.0
Thu 12 Sep 2024 00:12:17 INFO  epoch 0 training [time: 12.62s, train loss: 886.9972]
Thu 12 Sep 2024 00:12:19 INFO  epoch 0 evaluating [time: 1.35s, valid_score: 0.021400]
Thu 12 Sep 2024 00:12:19 INFO  valid result: 
hit@5 : 0.0079    hit@10 : 0.0118    hit@20 : 0.0214    ndcg@5 : 0.0052    ndcg@10 : 0.0064    ndcg@20 : 0.0088    mrr@5 : 0.0043    mrr@10 : 0.0048    mrr@20 : 0.0054
…
